cifar_net.pth (torch_old, 249582 bytes, 10 tensors)

conv1.weight f4 [6, 3, 5, 5]
-0.04228954 -0.0029821035 0.06401525 0.071362995 0.25100398 0.16840775 0.19170588 0.26945278
0.19585015 0.24713258 0.30830488 0.16046174 0.32916975 0.109957926 0.13489886 0.24789533
0.1755278 0.00044986367 -0.036151186 -0.032865096 0.061398875 -0.07557463 -0.036898207 -0.17835303
-0.00276326 -0.20558722 0.06653542 0.031905174 -0.16807443 0.018000653 -0.05217417 -0.03436576
-0.065902516 -0.08181779 -0.073959805 0.047836356 0.1740088 0.16262734 0.0468039 -0.15618296
-0.028246567 -0.0061251335 0.008584689 -0.30337352 -0.2282766 0.14083175 -0.08267678 -0.177765
-0.20330448 0.0151059 -0.050391342 0.0052348715 -0.029951997 -0.09921169 -0.027325932 0.0875554
0.1863303 0.11849145 0.075368255 -0.013520516 0.16633594 0.033789348 -0.0093567595 0.014515969
-0.2119648 0.031181002 -0.0006323371 -0.17826518 -0.10047117 -0.15542352 0.0058289 0.08177309
-0.005603217 -0.11174175 0.029818641 0.19960508 0.23270239 0.48556492 0.19812426 0.14454833
0.06507541 0.15228127 0.07856842 0.12142717 0.022903215 0.027053798 -0.12640762 -0.23115529
-0.26656672 0.11249468 -0.26182693 -0.18966618 -0.22486739 -0.19074184 0.029780425 -0.30932608
-0.28697407 -0.078358725 -0.16938828 0.08039003 -0.22813527 -0.22363962 -0.19886027 -0.2624521
-0.357926 -0.035633434 -0.016134068 -0.20755827 -0.36732882 -0.20255078 -0.064818084 -0.031900275
-0.1983633 -0.35134965 -0.10499165 -0.024668407 -0.2636653 -0.25335002 -0.036069732 0.1662759
-0.091755904 -0.024886277 0.06253916 0.099863105 0.11375396 -0.06366431 -0.057340216 0.032810103
-0.019427937 0.015596258 0.12479523 0.15333916 0.15361606 0.004305187 0.047435764 0.09764454
0.14757375 -0.17174429 -0.06364201 0.13311847 0.08252745 -0.18694974 -0.15341897 -0.056409907
0.1147457 0.15866587 0.029799776 0.14624332 0.14712718 0.33742055 -0.22359002 0.08377287
0.0576164 -0.118228614 -0.05184047 -0.085663185 0.16881217 -0.32836026 -0.046462934 0.26477477
-0.0034177522 0.12256102 -0.28394607 -0.12368131 0.17159563 -0.23294656 -0.2744947 -0.12879068
-0.09958717 0.020256288 -0.13311464 -0.252977 -0.012982073 -0.07190541 -0.19641075 -0.029000975
0.3093416 0.058139775 -0.22955313 -0.021043075 0.24362431 0.20884469 -0.20216185 -0.108511455
0.19757915 0.23777539 0.3590095 -0.20683764 0.07723561 0.4761654 0.09945832 0.13219742
0.17148241 -0.008143128 0.15450639 0.21167044 -0.069881454 0.31498978 0.16023771 -0.048198007
-0.22556062 0.04570548 -0.09238961 -0.1283773 -0.026414005 -0.097210124 0.059505075 -0.23728591
-0.003554486 0.20913212 -0.045045417 0.057064325 -0.16945131 -0.12692906 0.35378623 -0.23996262
-0.14575113 -0.03579094 -0.03294346 -0.018108396 -0.14520048 -0.28384423 0.16732919 -0.05289069
-0.10579647 -0.023316555 0.12997204 -0.07872962 -0.016531985 0.39711848 0.061775226 0.045622703
-0.016057927 -0.206122 0.27951387 0.054674383 0.23559275 -0.13959046 -0.49025545 0.15802625
0.15940301 0.40700006 -0.12447915 -0.4406888 0.16617766 0.041075006 0.05691501 -0.014838635
-0.20120792 0.0013497829 -0.17723565 0.010729017 -0.12156823 -0.26970595 0.122839995 0.0679164
00000000: cc37 2dbd 656f 43bb 6d1a 833d c326 923d
00000010: 9883 803e 1573 2c3e 8c4e 443e b7f5 893e
00000020: f18c 483e 5310 7d3e 23da 9d3e 1550 243e
00000030: f088 a83e 9f31 e13d ed22 0a3e 46d8 7d3e
00000040: 8fbd 333e aedb eb39 4413 14bd 8d9d 06bd
00000050: 637d 7b3d dfc6 9abd 9322 17bd 2da2 36be
00000060: cf17 35bb 7585 52be b943 883d 00af 023d
00000070: b41b 2cbe 1b76 933c 95b4 55bd 1cc3 0cbd
00000080: e6f7 86bd 1690 a7bd 3d78 97bd 0ef0 433d
00000090: 5d2f 323e c887 263e 72b5 3f3d 6dee 1fbe
000000a0: 5865 e7bc 58b5 c8bb cca6 0c3c c653 9bbe
000000b0: 57c1 69be 3336 103e 7252 a9bd 0708 36be
000000c0: 0d2f 50be bd7e 773c 2767 4ebd 4989 ab3b
000000d0: e45d f5bc 802f cbbd a2da dfbc 3f50 b33d
000000e0: 5fcd 3e3e a5ab f23d ac5a 9a3d 2885 5dbc
000000f0: f853 2a3e b366 0a3d 184d 19bc 63d4 6d3c
00000100: 4d0d 59be 4d6f ff3c 6dc3 25ba 268b 36be
00000110: d4c3 cdbd 5827 1fbe 5b00 bf3b a678 a73d
00000120: 319b b7bb dcd8 e4bd 3946 f43c 4665 4c3e
00000130: 8949 6e3e f79b f83e 16e1 4a3e 7a04 143e
00000140: 4246 853d 9fef 1b3e 7be8 a03d cfae f83d
00000150: 869f bb3c ed9f dd3c 0071 01be f9b3 6cbe
00000160: 6f7b 88be 9c63 e63d 2e0e 86be da37 42be
00000170: a343 66be d451 43be 14f6 f33c fd5f 9ebe
00000180: 44ee 92be 8a7a a0bd 1f74 2dbe 87a3 a43d
00000190: 4b9c 69be c901 65be 07a2 4bbe 1f60 86be
000001a0: 1442 b7be 5df4 11bd 982b 84bc 288a 54be
000001b0: 8612 bcbe 7969 4fbe 58bf 84bd dda9 02bd
000001c0: c01f 4bbe 1ae4 b3be dd05 d7bd 6615 cabc
000001d0: 23ff 86be 18b7 81be dbbd 13bd 3b44 2a3e
000001e0: 85ea bbbd 4ede cbbc 8814 803d 0785 cc3d
000001f0: d6f7 e83d 6f62 82bd 93dd 6abd e363 063d
00000200: 5627 9fbc 7387 7f3c a494 ff3d f104 1d3e
00000210: 874d 1d3e 8712 8d3b 014c 423d dcf9 c73d
00000220: 931d 173e bcdd 2fbe be56 82bd 3550 083e
00000230: 2704 a93d c16f 3fbe dd19 1dbe 130e 67bd
00000240: cbff ea3d 4e79 223e a91e f43c cfc0 153e
00000250: 82a8 163e 63c2 ac3e c8f4 64be 1c91 ab3d
00000260: 2dff 6b3d d821 f2bd ac56 54bd 2e70 afbd
00000270: 19dd 2c3e d61e a8be eb4f 3ebd 8f90 873e
00000280: 5efc 5fbb 4601 fb3d 6161 91be a04c fdbd
00000290: c4b6 2f3e 8b89 6ebe 928a 8cbe b4e1 03be
000002a0: 5cf4 cbbd 84f0 a53c 344f 08be 3486 81be
000002b0: c3b2 54bc 2543 93bd e61f 49be 7493 edbc
000002c0: 0662 9e3e f923 6e3d fa0f 6bbe 8762 acbc
000002d0: a778 793e 62db 553e 8403 4fbe 413b debd
000002e0: 3052 4a3e 647b 733e 18d0 b73e 3fcd 53be
000002f0: b42d 9e3d f4cb f33e ceb0 cb3d c35e 073e
00000300: 1699 2f3e c16a 05bc ec36 1e3e 23c0 583e
00000310: 021e 8fbd 5746 a13e 5b15 243e 466b 45bd
00000320: 5df9 66be ab35 3b3d c436 bdbd 5775 03be
00000330: 2f62 d8bc 1a16 c7bd 98bb 733d 14fb 72be
00000340: 61f2 68bb bb26 563e 8b81 38bd 48bc 693d
00000350: a584 2dbe b1f9 01be 7823 b53e c3b8 75be
00000360: c93f 15be 8599 12bd b9ef 06bd 0f58 94bc
00000370: 6faf 14be 0854 91be 5858 2b3e e8a3 58bd
00000380: d2ab d8bd 5c02 bfbc 6417 053e ff3c a1bd
00000390: 166e 87bc 1d53 cb3e 0508 7d3d dfde 3a3d
000003a0: ea8b 83bc a511 53be 711c 8f3e 3ff2 5f3d
000003b0: 3a3f 713e cdf0 0ebe c302 fbbe a2d1 213e
000003c0: 8b3a 233e 5062 d03e edee febd f6a1 e1be
000003d0: 7a2a 2a3e 443e 283d b71f 693d bf1d 73bc
000003e0: 7309 4ebe 33eb b03a 437d 35be c2c8 2f3c
000003f0: c4f8 f8bd e616 8abe 8993 fb3d c117 8b3d

conv1.bias f4 [6]
-0.25035357 -0.23234887 0.032350533 -0.17167658 0.37488082 -0.29842284
00000000: 582e 80be ddec 6dbe fe81 043d fccb 2fbe
00000010: 61f0 bf3e e1ca 98be

conv2.weight f4 [16, 6, 5, 5]
0.039134637 -0.0023745028 -0.032257203 0.08703913 0.06890995 -0.009859798 -0.019921942 -0.023075655
0.025118034 0.119145766 -0.09285833 -0.09479378 -0.11527757 -0.043769605 0.04770487 -0.19180775
-0.18690334 -0.06752198 -0.08188991 0.0894952 -0.3223371 -0.20073481 0.0018113495 -0.07722794
0.013793834 -0.03936488 -0.16540661 -0.21090104 -0.09777804 -0.2140466 0.20125541 0.012026982
-0.17810526 -0.16583644 -0.056199126 0.15616943 0.03297809 0.035133 -0.14059745 -0.21531335
0.022335587 0.08908962 0.13768479 0.07730362 -0.13977055 -0.0053120637 -0.014441049 0.027038736
0.11161058 0.14842306 0.03290253 -0.1124277 -0.03483414 -0.030802716 0.061640903 0.07628889
0.09263699 0.017986095 0.023816723 -0.031671774 0.031249667 0.06136215 0.031701222 0.054111194
-0.047611352 -0.07109622 -0.044295743 0.040319335 0.10649825 0.08312968 -0.11522819 -0.09778746
0.0111812465 -0.05689068 0.043357536 -0.35699862 -0.05457657 0.1007098 0.02299844 -0.008328919
-0.0783631 -0.2984279 -0.0072120246 -0.029931696 -0.03574722 0.37082395 0.052589543 -0.15246934
-0.04770299 0.06420461 0.26283404 0.20230767 0.15697904 -0.095241606 -0.22450374 -0.012736571
0.048889775 0.13555251 0.07310236 -0.07004707 0.17530121 0.07098514 -0.017535701 -0.00042931738
-0.03200277 0.017757276 0.095160544 0.00082465896 -0.09688587 -0.1225984 -0.16428427 0.038079124
0.22466376 0.18534356 -0.079158664 -0.17068589 -0.15793762 -0.049705632 0.1005757 0.15436746
0.09364827 -0.066960245 -0.12839697 -0.14566767 -0.052106287 0.031712808 0.08346977 0.14294535
-0.04349058 0.08774259 0.107067235 -0.050137106 0.06404431 0.18604623 0.08959248 0.2105242
0.20469742 -0.043569524 -0.08390158 0.08234443 -0.15799786 0.2163908 0.22159262 0.10365123
-0.15052995 -0.10927203 -0.068735234 0.12073153 0.17594558 0.028396444 0.025801977 -0.11920531
0.10756939 0.050632883 0.09134934 0.02790491 -0.040469125 0.044348087 -0.07626458 -0.036359973
0.07401852 -0.10235666 0.0464478 -0.0568187 0.019455213 0.0837125 -0.0721919 -0.09669923
-0.12220089 -0.05622953 0.010542611 -0.013989572 -0.000473054 -0.021408034 -0.12879635 -0.008796414
-0.06571286 0.063001804 0.049995832 0.20163117 -0.09812359 -0.17790417 0.0077409293 -0.031121008
0.08465091 -0.09102097 -0.019425994 -0.05579294 -0.012671401 -0.027217943 -0.11137785 -0.10400688
-0.10942217 -0.168393 -0.019805312 -0.12581518 -0.09265362 -0.105934285 -0.16640526 0.04080993
0.051482268 0.13229887 -0.11687371 0.06668363 -0.104015134 -0.07836226 0.06223807 0.04769221
0.09801335 0.023780338 0.110072784 0.101328254 -0.010977664 0.122001715 0.083110996 -0.055943277
0.055189036 0.16401477 0.030209975 0.103881694 0.05813419 -0.022591399 0.08070908 -0.032828975
0.19260344 0.06405599 0.06743725 0.14479005 -0.0749713 0.11005509 -0.00014285356 -0.14068614
0.08656957 -0.13190244 0.07765998 0.1130225 -0.21561483 0.25400054 -0.2525852 0.09749195
0.056808144 -0.20033033 0.16104795 -0.13396344 0.14912193 -0.145271 -0.20054205 -0.03672467
-0.1036531 -0.029454743 -0.16669616 -0.09899779 -0.106024794 0.054363552 0.09724665 0.08800059
00000000: a44b 203d 8c9d 1bbb 2120 04bd 9241 b23d
00000010: a920 8d3d fd8a 21bc 5733 a3bc 2809 bdbc
00000020: 56c4 cd3c b202 f43d 822c bebd 3e23 c2bd
00000030: a616 ecbd c247 33bd 2f66 433d 4069 44be
00000040: 9763 3fbe f748 8abd e6b5 a7bd 4249 b73d
00000050: 5e09 a5be 6d8d 4dbe ce6a ed3a af29 9ebd
00000060: 88ff 613c 123d 21bd 5a60 29be 71f6 57be
00000070: da3f c8bd 082f 5bbe e615 4e3e d20c 453c
00000080: 3a61 36be 07d1 29be 0e31 66bd e1ea 1f3e
00000090: 0914 073d 9fe7 0f3d c7f8 0fbe 1a7b 5cbe
000000a0: 1ff9 b63c 9e74 b63d 3efd 0c3e 5c51 9e3d
000000b0: 0320 0fbe d210 aebb 269a 6cbc 5780 dd3c
000000c0: 1694 e43d 37fc 173e cec4 063d 7e40 e6bd
000000d0: 3eae 0ebd fa55 fcbc 2c7b 7c3d 593d 9c3d
000000e0: 76b8 bd3d 9357 933c 4a1b c33c 43ba 01bd
000000f0: 4dff ff3c e156 7b3d 24d9 013d b3a3 5d3d
00000100: 1f04 43bd e59a 91bd 746f 35bd e325 253d
00000110: c11b da3d e53f aa3d c2fc ebbd cb44 c8bd
00000120: 8c31 373c 3406 69bd ac97 313d 86c8 b6be
00000130: ae8b 5fbd f140 ce3d 3967 bc3c 0576 08bc
00000140: d57c a0bd 8bcb 98be d952 ecbb 5133 f5bc
00000150: ad6b 12bd a3dc bd3e 2268 573d ec20 1cbe
00000160: 3664 43bd b57d 833d 2f92 863e be29 4f3e
00000170: 1dbf 203e 080e c3bd 4fe4 65be 0dad 50bc
00000180: a540 483d 47ce 0a3e b1b6 953d d774 8fbd
00000190: 2982 333e a860 913d 08a7 8fbc 0116 e1b9
000001a0: 5615 03bd b577 913c 88e3 c23d ed2d 583a
000001b0: 196c c6bd df14 fbbd 233a 28be dbf8 1b3d
000001c0: 420e 663e b4ca 3d3e f01d a2bd 48c8 2ebe
000001d0: 66ba 21be 2298 4bbd a2fa cd3d 8112 1e3e
000001e0: aaca bf3d 7422 89bd 7f7a 03be e829 15be
000001f0: 676d 55bd 4ae5 013d 33f2 aa3d 4460 123e
00000200: 2e23 32bd 63b2 b33d 1146 db3d 915c 4dbd
00000210: aa29 833d e782 3e3e 437c b73d a893 573e
00000220: 339c 513e f575 32bd 97d4 abbd 32a4 a83d
00000230: 31ca 21be 8d95 5d3e 2de9 623e 1947 d43d
00000240: 8624 1abe 04ca dfbd 0fc5 8cbd 1842 f73d
00000250: 142b 343e a99f e83c ab5e d33c ea21 f4bd
00000260: 574d dc3d 6d64 4f3d 5d15 bb3d d698 e43c
00000270: f4c2 25bd 57a6 353d 9b30 9cbd 32ee 14bd
00000280: 0697 973d 5ea0 d1bd 0c40 3e3d baba 68bd
00000290: 8a60 9f3c 7671 ab3d 59d9 93bd 3f0a c6bd
000002a0: 7644 fabd f050 66bd eaba 2c3c 8534 65bc
000002b0: 3c04 f8b9 e75f afbc 31e3 03be d61e 10bc
000002c0: 7794 86bd 1707 813d 6ec8 4c3d 6778 4e3e
000002d0: 05f5 c8bd 832c 36be 9fa7 fd3b 7cf1 febc
000002e0: 755d ad3d 3469 babd 4323 9fbc 2387 64bd
000002f0: b59b 4fbc 2af8 debc 121a e4bd 8f01 d5bd
00000300: bb18 e0bd 376f 2cbe c03e a2bc b2d5 00be
00000310: 2ec1 bdbd 13f4 d8bd 2466 2abe 5028 273d
00000320: 12df 523d 5b79 073e 7c5b efbd 6d91 883d
00000330: e305 d5bd 647c a0bd 59ed 7e3d e858 433d
00000340: 39bb c83d fcce c23c d76d e13d 3085 cf3d
00000350: a9db 33bc 09dc f93d 1936 aa3d c724 65bd
00000360: e60d 623d 7df3 273e e97a f73c edbf d43d
00000370: 1e1e 6e3d 9911 b9bc cd4a a53d ad77 06bd
00000380: d639 453e c92f 833d 8a1c 8a3d d843 143e
00000390: 8e8a 99bd 9064 e13d f6ca 15b9 0710 10be
000003a0: 634b b13d 6f11 07be 320c 9f3d 5778 e73d
000003b0: 22ca 5cbe 5c0c 823e d952 81be dca9 c73d
000003c0: a8af 683d 6523 4dbe c1e9 243e b62d 09be
000003d0: 6bb3 183e ecc1 14be e55a 4dbe 9c6c 16bd
000003e0: 1448 d4bd 134b f1bc 66b2 2abe 5abf cabd
000003f0: 8723 d9bd 51ac 5e3d 4029 c73d a739 b43d

conv2.bias f4 [16]
-0.4016612 0.4746735 0.5107072 -0.27435514 0.24055156 0.10112959 -0.1261862 0.60608476
-0.7197565 -0.24129373 0.7122659 -0.3174588 0.008392438 -0.11464477 0.16009833 0.15271536
00000000: 89a6 cdbe 6808 f33e b5bd 023f 4778 8cbe
00000010: 2653 763e 081d cf3d f536 01be 5f28 1b3f
00000020: f641 38bf b415 77be 0f57 363f f689 a2be
00000030: 7080 093c e1ca eabd d1f0 233e 6a61 1c3e

fc1.weight f4 [120, 400]
-0.08049233 -0.10326639 -0.023777705 -0.08227045 -0.065049425 -0.054799058 -0.07948635 -0.051174503
-0.07878415 -0.07532678 -0.043080527 -0.028274048 -0.041467972 -0.039022103 0.017001169 0.111141436
0.047615588 0.06835703 -0.0045883143 0.05691716 -0.01621683 0.029353611 -0.00021147229 0.037384823
-0.00023807558 -0.12307061 -0.033324044 0.01097097 -0.08258006 -0.061602864 -0.092268914 0.04160143
0.00017760856 0.0042057354 -0.05230002 -0.06986652 0.05999266 -0.012705243 0.019086255 -0.00378377
-0.0013260598 0.040359765 0.011342639 0.053928874 -0.06506191 0.011610969 -0.013158281 0.051365368
0.033837438 -0.0146459 0.073158115 0.023649935 0.0018894001 0.047317725 -0.022299206 0.07837228
-0.0051733893 -0.033601955 -0.032982122 -0.0051685944 -0.013430826 -0.021364624 -0.0075192717 -0.08561634
0.027596809 0.05751495 0.014092353 -0.0044100718 -0.08513719 0.038945094 0.05228808 0.012644046
-0.047928993 0.018141348 0.043162204 -0.0850235 -0.030725881 -0.03908931 -0.06468035 -0.088180274
-0.081779405 0.04500821 0.030036164 0.013514718 -0.04622996 -0.039638333 -0.012425406 0.0088034365
-0.03765055 -0.042016298 -0.035452757 -0.013692522 0.030036557 0.008100067 0.0047943797 -0.06343589
-0.028007701 -0.043197084 -0.028098172 0.03818121 -0.099804685 -0.10888415 -0.0028468869 -0.0866925
-0.08359094 -0.0165877 -0.0643126 0.0006495788 -0.06232562 0.045953445 -0.024023175 -0.06328584
-0.014022015 0.016147256 0.020691767 -0.0033498106 -0.031463403 -0.0031981613 0.08791539 -0.0060841474
-0.03457999 -0.03001257 0.025863726 0.030229548 -0.03062558 -0.10113227 -0.0093045235 -0.0065102247
-0.057796236 -0.031041794 -0.07196321 0.001547621 -0.009658568 0.0073858546 -0.01658725 0.015623086
0.033105347 0.06404015 -0.013299859 -0.029176954 -0.0031586771 -0.020768993 -0.0051637706 0.07740695
0.12154647 0.043263156 -0.043275904 0.0105944425 0.028255304 -0.0048588915 0.050523765 0.049777273
0.012979531 -0.03095169 0.061760135 0.054409325 -0.010710835 -0.10441758 0.009090591 0.006095823
0.051216673 -0.03840162 -0.08131579 -0.03485793 -0.012151718 0.047431715 -0.015275102 -0.03885054
-0.01519262 0.01992004 0.052443996 -0.03600821 -0.04602855 0.004674052 0.00014037508 0.0033401914
0.026187845 0.094271995 0.025812764 -0.07315025 -0.008360419 0.02184849 0.06869676 0.058898818
-0.025315221 -0.022740135 0.072372794 0.04201995 0.10227884 0.051501404 0.02471092 -0.032023497
-0.015586445 0.043272894 0.023647772 -0.032256514 -0.019981794 0.000495839 -0.04067493 0.06655758
-0.13948938 -0.08595667 -0.15751807 -0.13162349 -0.08826606 -0.15738688 -0.11473793 -0.122705825
-0.003760401 0.00092305226 -0.009159473 -0.096759684 0.0484134 0.043325853 -0.0076266965 0.016222838
-0.0019206789 0.11272016 0.11011274 -0.00014240429 -0.0209637 0.07333987 0.07844015 0.033283576
0.009441496 -0.024590088 -0.10041703 -0.08422771 -0.050561354 0.0042701177 -0.081693426 -0.116544746
-0.0243023 -0.009568083 -0.016726116 -0.083543904 -0.044273213 0.026927931 -0.013008782 -0.041974347
-0.0172995 -0.039805032 -0.03827844 -0.07954845 -0.031716846 -0.053898104 -0.0020194019 -0.020457538
0.009037526 0.020723026 0.04469399 -0.016297176 0.0044210083 -0.002321123 -0.0010463956 0.016540559
00000000: 2ad9 a4bd 547d d3bd 76c9 c2bc 697d a8bd
00000010: a238 85bd fa74 60bd bdc9 a2bd 5b9c 51bd
00000020: 9659 a1bd ed44 9abd 3575 30bd fa9e e7bc
00000030: 52da 29bd a4d5 1fbd 0946 8b3c 1f9e e33d
00000040: 9008 433d c5fe 8b3d 9259 96bb f821 693d
00000050: 28d9 84bc fc76 f03c a9be 5db9 d420 193d
00000060: eda3 79b9 720c fcbd cb7e 08bd 95bf 333c
00000070: bc1f a9bd 4953 7cbd 7cf7 bcbd 4366 2a3d
00000080: 6f3c 3a39 44d0 893b 8c38 56bd 2e16 8fbd
00000090: ddba 753d a729 50bc c75a 9c3c 20f9 77bb
000000a0: 2fcf adba 4850 253d 7ad6 393c 86e4 5c3d
000000b0: 2e3f 85bd ef3b 3e3c d595 57bc 7e64 523d
000000c0: 2099 0a3d 5bf5 6fbc ecd3 953d 82bd c13c
000000d0: bfa5 f73a 3bd0 413d d3ac b6bc a581 a03d
000000e0: 8985 a9bb 34a2 09bd 4318 07bd 505d a9bb
000000f0: f80c 5cbc dd04 afbc 3964 f6bb 9f57 afbd
00000100: b412 e23c cc94 6b3d 9de3 663c 5d82 90bb
00000110: 685c aebd e484 1f3d 072c 563d f928 4f3c
00000120: 3151 44bd 2a9d 943c daca 303d cd20 aebd
00000130: d8b4 fbbc 1d1c 20bd 2277 84bd dc97 b4bd
00000140: f67b a7bd 875a 383d 670e f63c d66c 5d3c
00000150: a05b 3dbd ce5b 22bd ee93 4bbc 4a3c 103c
00000160: 7737 1abd 4819 2cbd e936 11bd 9a56 60bc
00000170: 3a0f f63c 25b6 043c 2c1a 9d3b adea 81bd
00000180: 6870 e5bc 6def 30bd 232e e6bc e763 1c3d
00000190: 6666 ccbd a7fe debd d692 3abb d68b b1bd
000001a0: ba31 abbd eee2 87bc 53b6 83bd 7f48 2a3a
000001b0: 2649 7fbd ae39 3c3d 40cc c4bc 029c 81bd
000001c0: 98bc 65bc 4047 843c c881 a93c 7f88 5bbb
000001d0: c5df 00bd 3e98 51bb fc0c b43d 875d c7bb
000001e0: bfa3 0dbd ecdc f5bc 2ae0 d33c f5a3 f73c
000001f0: 7fe2 fabc 701e cfbd 0072 18bc b953 d5bb
00000200: bfbb 6cbd 5c4b febc 7361 93bd 8bd9 ca3a
00000210: f83e 1ebc 0a05 f23b fce1 87bc f9f7 7f3c
00000220: 7999 073d 7b27 833d a7e7 59bc 8204 efbc
00000230: cf01 4fbb bc23 aabc d934 a9bb 8987 9e3d
00000240: 5bed f83d b534 313d 1342 31bd 5094 2d3c
00000250: ab77 e73c 5637 9fbb 02f2 4e3d 41e3 4b3d
00000260: 19a8 543c 668e fdbc 32f8 7c3d 50dc 5e3d
00000270: 807c 2fbc e2d8 d5bd b4f0 143c 78bf c73b
00000280: 93c8 513d 044b 1dbd e588 a6bd 30c7 0ebd
00000290: 0018 47bc c247 423d 6c44 7abc be21 1fbd
000002a0: 78ea 78bc 5a2f a33c 84cf 563d 587d 13bd
000002b0: 6f88 3cbd ca28 993b a631 1339 1de7 5a3b
000002c0: e487 d63c ad11 c13d 4a75 d33c cccf 95bd
000002d0: 24fa 08bc 9bfb b23c e3b0 8c3d e33f 713d
000002e0: de61 cfbc 8549 babc 3038 943d 1c1d 2c3d
000002f0: 9277 d13d 23f3 523d 8e6e ca3c 122b 03bd
00000300: 4a5e 7fbc eb3e 313d f9b8 c13c 681f 04bd
00000310: dcb0 a3bc 31fb 013a c19a 26bd 574f 883d
00000320: 4ed6 0ebe 0d0a b0bd 6b4c 21be 4fc8 06be
00000330: d6c4 b4bd 072a 21be b8fb eabd 314d fbbd
00000340: 0f71 76bb fdf8 713a 9d11 16bc f129 c6bd
00000350: 214d 463d 7376 313d 5ee9 f9bb c2e5 843c
00000360: 4abf fbba d4d9 e63d ca82 e13d 5c52 15b9
00000370: 11bc abbc 3733 963d 3ba5 a03d 5c54 083d
00000380: 81b0 1a3c 2771 c9bc 72a7 cdbd 947f acbd
00000390: 6c19 4fbd 58ec 8b3b e24e a7bd 03af eebd
000003a0: 9e15 c7bc 73c3 1cbc 3505 89bc 1119 abbd
000003b0: d457 35bd f797 dc3c c922 55bc 4bed 2bbd
000003c0: aeb7 8dbc 9a0a 23bd dac9 1cbd 4cea a2bd
000003d0: 86e9 01bd 42c4 5cbd f157 04bb 9196 a7bc
000003e0: 2212 143c 56c3 a93c 0c11 373d a881 85bc
000003f0: 1bde 903b fb1d 18bb 3627 89ba 1180 873c

fc1.bias f4 [120]
0.13173786 0.17444375 -0.0041414825 0.027477281 0.08835392 -0.09286513 -0.059377883 0.082155965
-0.039164517 0.030667445 0.034224175 -0.10925186 -0.0069101555 0.051557757 0.061587576 -0.021937836
-0.02556842 -0.042060733 -0.0664939 0.12536488 -0.03199111 -0.012444333 0.034555536 -0.051291548
-0.09735778 -0.019626426 0.082533956 -0.032693643 0.081369944 -0.08491304 -0.18775322 0.22510548
0.028852096 -0.13983183 -0.06412503 -0.016950227 -0.03380208 -0.02229354 0.024981938 -0.105459236
0.123962894 -0.016366018 -0.053071357 0.14236261 0.10689246 -0.057062883 0.12198289 -0.1296161
-0.041949213 -0.17782484 -0.10405868 0.045773517 0.13468887 -0.07816975 -0.044470657 0.055177156
0.13513167 0.12664413 -0.03947384 0.034158446 0.03345973 -0.09378178 -0.0213009 -0.045108713
-0.020630108 0.12798846 0.19949019 0.19887775 0.048678324 -0.05326116 -0.019363018 -0.030152619
-0.05351784 -0.06538012 -0.020826802 0.067893766 0.03086503 0.10675513 -0.06471408 0.108173534
-0.050531335 0.06373581 0.26148924 0.079677664 0.033289235 -0.113888614 0.09292297 -0.041394725
-0.041649796 0.04929659 0.0018009843 0.13364738 0.15500678 0.06308134 0.014540005 0.10113321
0.022869824 0.11968289 0.017678462 0.07265491 0.017015366 -0.037759837 0.0027644096 -0.028089195
-0.02559969 -0.051471695 -0.047327086 -0.1305389 -0.038034923 0.16200618 0.03968163 0.05108198
0.033338528 0.13306922 -0.055340808 -0.0061287666 0.037078094 -0.018607793 -0.15579475 0.12357652
00000000: 4ae6 063e 62a1 323e 46b5 87bb 0918 e13c
00000010: e6f2 b43d 1330 bebd 3936 73bd 6341 a83d
00000020: f96a 20bd 4b3a fb3c a62e 0c3d 70bf dfbd
00000030: 966e e2bb 3a2e 533d 4143 7c3d fab6 b3bc
00000040: dd74 d1bc e047 2cbd f42d 88bd a75f 003e
00000050: 1c09 03bd 51e3 4bbc 1b8a 0d3d 1617 52bd
00000060: 8463 c7bd 99c7 a0bc 9007 a93d c5e9 05bd
00000070: 49a5 a63d e3e6 adbd 6142 40be 0d82 663e
00000080: 3b5b ec3c 1330 0fbe fc53 83bd 34db 8abc
00000090: 0d74 0abd f1a0 b6bc eca6 cc3c 03fb d7bd
000000a0: 42e0 fd3d 0712 86bc 5a61 59bd 81c7 113e
000000b0: 6fea da3d c5ba 69bd 2ad2 f93d 15ba 04be
000000c0: f0d2 2bbd b717 36be b81c d5bd 037d 3b3d
000000d0: e1eb 093e 7617 a0bd dd26 36bd 7101 623d
000000e0: f55f 0a3e 00af 013e 52af 21bd bae9 0b3d
000000f0: 120d 093d a910 c0bd 3a7f aebc eac3 38bd
00000100: 7900 a9bc 680f 033e 2847 4c3e 9ca6 4b3e
00000110: ec62 473d 6028 5abd 319f 9ebc a002 f7bc
00000120: 8635 5bbd 03e6 85bd f89c aabc e30b 8b3d
00000130: a9d8 fc3c 6fa2 da3d d188 84bd 168a dd3d
00000140: f2f9 4ebd ec87 823d ebe1 853e 0b2e a33d
00000150: 4b5a 083d 6f3e e9bd 664e be3d 848d 29bd
00000160: fa98 2abd 39eb 493d 010f ec3a dcda 083e
00000170: 19ba 1e3e ca30 813d 3339 6e3c ee1e cf3d
00000180: 7f59 bb3c 4e1c f53d 6cd2 903c 19cc 943d
00000190: cf63 8b3c 0faa 1abd 192b 353b 501b e6bc
000001a0: 71b6 d1bc fcd3 52bd 0cda 41bd fdab 05be
000001b0: 82ca 1bbd f3e4 253e 3489 223d 573b 513d
000001c0: fb8d 083d 4c43 083e 0bad 62bd d2d3 c8bb
000001d0: 33df 173d 5f6f 98bc a988 1fbe b015 fd3d

fc2.weight f4 [84, 120]
-0.015329481 0.20078446 0.012092263 0.05884746 0.09691497 -0.10120965 -0.032292932 -0.11947694
0.029211422 -0.058433674 -0.07448703 -0.07543376 0.071094595 0.025754832 0.0370993 -0.012009373
-0.10347789 -0.07498163 -0.08964497 -0.07250391 0.09277195 -0.0184914 0.051218234 -0.118816175
-0.10058674 0.0021581133 -0.014843167 0.0304593 -0.07137838 -0.07970701 -0.1537816 0.07621506
-0.005466065 -0.08020655 0.048026394 0.008655201 0.020709544 0.058500633 0.094246775 -0.11447075
-0.031788744 -0.09018851 -0.013925638 0.104491994 0.09344125 -0.11295776 0.03780252 -0.09244725
-0.084213845 -0.10048963 -0.02301905 0.096250184 0.027966633 -0.00053072313 0.0010073908 0.0982808
0.013585712 -0.029785676 0.06760521 -0.046661407 -0.05911423 -0.0180361 -0.048862685 0.017022442
-0.021382628 0.033466548 0.05293086 0.17352721 0.084927954 -0.08543504 -0.054066572 -0.07649366
0.029902857 -0.090760455 0.033988994 0.13089919 -0.081728734 0.06934509 0.011511318 0.19294657
0.005908429 0.009378053 0.20934959 0.049588997 -0.028673373 -0.06938491 0.026491132 -0.045341503
-0.003910382 0.08506687 -0.10843344 0.07630645 0.22797066 0.038029186 -0.020583803 0.12598081
0.09894114 0.11559944 -0.098976955 0.04528746 0.06954718 -0.020575093 0.019696007 -0.06673606
-0.049038354 0.048900902 -0.0378165 -0.08025076 -0.073725164 0.114075854 -0.022139028 0.0051148743
-0.042261098 0.04978964 0.0064835562 0.07780078 -0.013045899 0.0073224544 -0.042579643 0.11313834
0.08586517 -0.056202754 0.06092838 0.09007684 -0.0041145487 -0.07833916 0.03914292 0.057468675
0.0032986552 0.1249936 -0.004488542 -0.09518363 -0.097208954 0.0842159 0.017029021 0.032978054
0.05732497 0.031554405 0.0211998 -0.03374271 -0.0818425 0.09132205 0.08717912 -0.018089388
-0.032969613 -0.047091153 0.012251194 0.050217316 -0.05727305 -0.04835607 -0.06816889 0.033011846
0.07089248 -0.0629325 0.049486395 0.054955937 0.06793927 -0.06828058 0.090532236 0.064747505
-0.07473457 0.019857433 -0.03094109 -0.10146479 -0.10677507 0.005878181 0.07939332 -0.057820275
-0.0694821 -0.047264695 -0.06121934 0.02602752 -0.027571429 -0.12352461 -0.12461133 0.0864598
0.05590717 0.025603479 -0.05045714 0.010007644 0.08871548 0.022470979 -0.04097895 0.06631335
0.094248995 -0.006208827 0.055115096 -0.07864249 -0.03350383 0.06565207 0.07058822 -0.05025804
-0.0072634374 -0.05039727 -0.024412196 0.03670349 0.069249764 0.005238799 -0.0070446883 0.06255993
-0.07254345 -0.041346483 -0.06171687 -0.0021464932 -0.09732546 -0.059920624 0.10058971 -0.019414991
0.05842033 -0.05131695 -0.010432925 -0.029895406 0.010495385 0.12923202 -0.11309949 -0.037487246
0.020720908 0.024410788 0.057965554 -0.06310521 0.028085243 0.06556575 0.02162502 0.03417368
0.012902575 0.06144472 -0.0902782 0.094925314 -0.050490994 0.07160258 0.062067777 -0.028131353
0.003400902 -0.00025761704 0.012379043 -0.039246175 0.15979525 0.067326196 0.00605439 0.00901276
0.0033668012 -0.08143146 0.041949075 -0.05786402 0.0054560415 -0.088090494 -0.098148145 -0.07955292
-0.009836319 0.0016535335 -0.012989572 0.0024215959 0.08986979 0.07917865 0.018617555 -0.100871846
00000000: 8128 7bbc 719a 4d3e a11e 463c 090a 713d
00000010: 5b7b c63d 0147 cfbd 9845 04bd 53b0 f4bd
00000020: cb4c ef3c 2658 6fbd a88c 98bd 047d 9abd
00000030: 0b9a 913d ccfb d23c 70f5 173d f6c2 44bc
00000040: 37ec d3bd f88f 99bd c897 b7bd ee7c 94bd
00000050: 38ff bd3d 477b 97bc 36ca 513d e555 f3bd
00000060: 6c00 cebd 226f 0d3b c130 73bc c885 f93c
00000070: d42e 92bd 6e3d a3bd ec78 1dbe a416 9c3d
00000080: ad1c b3bb 5543 a4bd 53b7 443d 8bce 0d3c
00000090: 10a7 a93c 5c9e 6f3d 7404 c13d a46f eabd
000000a0: ea34 02bd c1b4 b8bd 5c28 64bc e6ff d53d
000000b0: 205e bf3d 6656 e7bd d1d6 1a3d fc54 bdbd
000000c0: 4f78 acbd 82cd cdbd 7292 bcbc d11e c53d
000000d0: 481a e53c 3a20 0bba 6d0a 843a 7247 c93d
000000e0: 9b96 5e3c 1701 f4bc 9a74 8a3d 0820 3fbd
000000f0: c321 72bd 71c0 93bc 3d24 48bd a672 8b3c
00000100: 9f2a afbc 3814 093d 08ce 583d 1eb1 313e
00000110: b5ee ad3d 91f8 aebd e974 5dbd b5a8 9cbd
00000120: d6f6 f43c 9ee0 b9bd 0b38 0b3d 700a 063e
00000130: 6561 a7bd cc04 8e3d f899 3c3c c993 453e
00000140: 7f9b c13b 68a6 193c bd5f 563e d51d 4b3d
00000150: 6ce4 eabc ad19 8ebd ee03 d93c 03b8 39bd
00000160: a922 80bb 8a37 ae3d 5a12 debd 8e46 9c3d
00000170: 2471 693e 7ec4 1b3d 5d9f a8bc 1d01 013e
00000180: a7a1 ca3d 66bf ec3d 6eb4 cabd 587f 393d
00000190: c06e 8e3d 198d a8bc 8559 a13c eaac 88bd
000001a0: 71dc 48bd 504c 483d 79e5 1abd 835a a4bd
000001b0: 38fd 96bd 9aa0 e93d e85c b5bc ad9a a73b
000001c0: f919 2dbd 39f0 4b3d 0374 d43b 0456 9f3d
000001d0: 77be 55bc 33f1 ef3b fe67 2ebd 13b5 e73d
000001e0: 14da af3d dc34 66bd 0990 793d 357a b83d
000001f0: 56d3 86bb 4870 a0bd 5454 203d 4664 6b3d
00000200: 402e 583b a5fc ff3d 9f14 93bb a3ef c2bd
00000210: 7d15 c7bd 6379 ac3d 7280 8b3c ff13 073d
00000220: 96cd 6a3d 313f 013d 34ab ad3c cc35 0abd
00000230: 0a9d a7bd 0e07 bb3d f78a b23d 3230 94bc
00000240: 250b 07bd a7e2 40bd 3bb9 483c acb0 4d3d
00000250: 2597 6abd 0411 46bd 229c 8bbd 6e37 073d
00000260: 1430 913d c1e2 80bd 3fb2 4a3d 7a19 613d
00000270: be23 8b3d b0d6 8bbd f768 b93d 579a 843d
00000280: 700e 99bd 0eac a23c 2b78 fdbc c6cc cfbd
00000290: e3ac dabd c29d c03b f798 a23d f4d4 6cbd
000002a0: a24c 8ebd a098 41bd 21c1 7abd aa37 d53c
000002b0: 7add e1bc 79fa fcbd 3a34 ffbd d611 b13d
000002c0: ebfe 643d 63be d13c 25ac 4ebd 1af7 233c
000002d0: 76b0 b53d 0f15 b83c 8bd9 27bd 4bcf 873d
000002e0: 9e05 c13d 6a73 cbbb 5ec0 613d 500f a1bd
000002f0: 503b 09bd 9874 863d 8f90 903d 60db 4dbd
00000300: 2102 eebb 5e6d 4ebd 16fc c7bc 6656 163d
00000310: d2d2 8d3d 3baa ab3b 21d7 e6bb 6c1f 803d
00000320: a991 94bd ee5a 29bd d4ca 7cbd 2eac 0cbb
00000330: 9252 c7bd 546f 75bd fa01 ce3d 300c 9fbc
00000340: 284a 6f3d b931 52bd dcee 2abc 36e7 f4bc
00000350: d6f4 2b3c 6655 043e b5a0 e7bd 3a8c 19bd
00000360: e5be a93c 22f9 c73c 4a6d 6d3d 4e3d 81bd
00000370: 0613 e63c 5647 863d f426 b13c b3f9 0b3d
00000380: 5265 533c 75ad 7b3d c7e3 b8bd 3468 c23d
00000390: a5cf 4ebd 60a4 923d c83a 7e3d b973 e6bc
000003a0: abe1 5e3b c610 87b9 78d1 4a3c 99c0 20bd
000003b0: 5ea1 233e 51e2 893d e863 c63b 41aa 133c
000003c0: 8da5 5c3b 8ac5 a6bd cbd2 2b3d d302 6dbd
000003d0: 98c8 b23b ca68 b4bd e501 c9bd a4ec a2bd
000003e0: 8328 21bc 61bb d83a 37d2 54bc a3b3 1e3b
000003f0: a70d b83d 6b28 a23d d883 983c e695 cebd

fc2.bias f4 [84]
0.40181765 0.11241719 0.048532523 0.109621465 0.14218792 -0.1700934 0.0011134841 0.055420488
0.25884822 0.0053502126 -0.20367967 0.21277247 0.048340604 -0.01833346 -0.0914194 0.10967657
-0.08355049 -0.08028062 0.093891375 -0.0068321894 0.20582545 -0.1649721 0.20852421 -0.08537195
-0.007863264 0.09823072 0.09959186 0.24780391 0.11794782 0.20697194 -0.07583732 0.2678645
-0.03830434 0.04419291 -0.056162022 0.13907479 0.04025011 0.072655804 0.0047471016 -0.05986372
0.29007104 0.21690306 -0.2152274 0.030200394 0.3000624 -0.057101477 0.25376353 0.047273833
-0.097812615 0.013483998 0.21148178 -0.035117965 0.27729684 0.017705467 -0.09120269 -0.12139797
0.0003086961 -0.012075935 0.14078449 -0.03873464 0.10914634 0.19797483 -0.105574965 0.13646464
0.037358534 -0.103913344 0.00078310596 -0.20393027 0.03150146 0.26409182 0.17095044 -0.006255374
0.03883167 0.18880025 -0.0660117 0.20545934 0.017258136 -0.026880857 0.08375512 0.22269438
0.21685132 -0.041126154 0.04922206 0.042937182
00000000: 0bbb cd3e fc3a e63d 0aca 463d 3881 e03d
00000010: b699 113e f72c 2ebe 54f2 913a 9800 633d
00000020: c187 843e d650 af3b 6791 50be 07e1 593e
00000030: cc00 463d 0d30 96bc 183a bbbd 1c9e e03d
00000040: 851c abbd 2a6a a4bd 1f4a c03d 8fe0 dfbb
00000050: e8c3 523e 72ee 28be 5f87 553e 7dd7 aebd
00000060: ebd4 00bc 302d c93d d1f6 cb3d 4fc0 7d3e
00000070: a08e f13d 74f0 533e 9950 9bbd 8925 893e
00000080: 03e5 1cbd a003 353d 260a 66bd 9f69 0e3e
00000090: 4ddd 243d 91cc 943d 938d 9b3b a933 75bd
000000a0: 3184 943e d61b 5e3e 9264 5cbe d166 f73c
000000b0: c7a1 993e 3de3 69bd 4bed 813e 35a2 413d
000000c0: fb51 c8bd fdeb 5c3c ae8e 583e dbd7 0fbd
000000d0: daf9 8d3e 0e0b 913c 7ac8 babd 809f f8bd
000000e0: 7dd8 a139 24da 45bc cf29 103e 37a8 1ebd
000000f0: 1e88 df3d eab9 4a3e b037 d8bd 63bd 0b3e
00000100: 4305 193d 85d0 d4bd 5a49 4d3a 19d3 50be
00000110: ad07 013d 0b37 873e a20d 2f3e e1f9 ccbb
00000120: f50d 1f3d da54 413e 2431 87bd ef63 523e
00000130: ef60 8d3c 3e35 dcbc ce87 ab3d ff09 643e
00000140: 460e 5e3e e673 28bd 129d 493d e6de 2f3d

fc3.weight f4 [10, 84]
-0.16617502 0.13978003 0.008607234 -0.019786138 0.12807752 -0.055936567 -0.16397797 0.13210765
-0.13963504 0.05629754 0.07912816 -0.21369545 -0.08934862 0.20983681 0.0010372824 -0.02931331
-0.07090518 -0.050148882 0.25690952 -0.027365789 0.19809406 0.1418027 0.2909378 0.03771298
0.01666932 -0.17869112 -0.18777767 0.39357096 -0.07235783 -0.16736366 -0.032309644 -0.2324993
-0.021813927 -0.0486636 0.07586613 -0.13742359 -0.166487 -0.0593501 0.00078534975 0.15026331
-0.07251574 0.06686261 0.025166629 -0.10036804 0.18993983 0.096263446 0.11815953 0.034207046
0.04908159 0.20058689 0.19455291 0.047787417 0.16099373 -0.09652048 0.0904147 0.052641273
-0.029272571 0.026971389 -0.09405544 -0.07214812 -0.09501963 -0.0832418 0.020901935 -0.28258765
0.04049581 -0.14043051 0.03920678 0.06672402 -0.06280568 0.12687647 0.23509242 0.09685343
-0.18158849 0.13961571 0.13273719 -0.093370944 -0.004329542 0.07837422 -0.02944568 -0.31359813
0.18239015 -0.026406776 0.051850725 -0.1334712 0.019369489 0.08298116 0.15519097 -0.21536288
0.030848296 0.24429506 0.0069645573 -0.12585683 0.015374197 0.21718296 0.17973384 -0.15434052
0.124769 -0.15922354 -0.12794578 0.0013072869 0.04582807 -0.06988949 0.0072901985 -0.012924312
-0.23154977 0.12864451 -0.1486811 0.010339472 -0.090355985 -0.101713344 -0.12323328 -0.042953897
-0.040239327 -0.26686656 0.061833277 -0.13463528 0.024916224 0.02364485 0.05617875 -0.017072527
0.2587757 -0.021695724 0.037889145 -0.08937845 -0.20340066 0.12086005 0.20213878 0.03821583
0.0048936023 -0.007961228 0.18150501 0.05223759 0.24898587 -0.035618402 -0.031695455 -0.09569565
-0.30577737 -0.19527116 -0.0794566 0.10384604 -0.04648797 -0.057948336 -0.1419083 0.030424662
-0.1787421 -0.18134099 0.25298837 0.26559526 -0.06418651 0.32690784 -0.17496721 0.18341804
0.07521687 -0.24760163 0.26871592 -0.10272946 -0.04886175 -0.1284969 0.17891894 -0.1046142
0.060124937 -0.016238647 -0.10412387 -0.07497389 -0.11630926 0.09836083 -0.24963896 0.05079687
0.22237197 0.0905755 0.046568517 0.2540295 -0.034707196 -0.016662423 -0.14972983 -0.07418447
0.050016742 0.01635897 -0.024175724 0.2041989 0.026111627 0.17900884 -0.112592004 -0.026226195
-0.21405844 0.13887735 0.06845761 0.015105724 0.30931273 -0.18278159 0.16365261 0.023530291
0.048247382 0.06562635 0.03527903 0.06167047 -0.106536545 0.059930865 0.10544935 0.040028024
-0.06060902 0.07688406 0.08822423 -0.13861272 -0.20092885 -0.03208004 -0.033682834 -0.017910296
0.01600006 -0.055691626 -0.073815845 -0.071385965 0.31068477 -0.11535202 -0.11895499 0.12932877
0.0968623 0.09639444 -0.13107531 0.04050997 0.3421735 -0.110014185 0.011262664 0.023404257
-0.108245715 -0.03825315 -0.03334706 0.10258996 0.09658649 0.10150931 -0.081359565 -0.106751636
0.014377593 0.090629 -0.037278537 0.17842475 0.052342825 0.14481062 -0.15997681 -0.07739648
-0.026945679 -0.028024038 -0.21012345 0.12061908 0.031638302 0.09062459 0.18760416 0.18342829
0.061712187 0.091875106 -0.005777293 0.02652389 0.06311125 -0.09362694 0.038560886 0.06373407
00000000: c929 2abe 7f22 0f3e 5b05 0d3c 8a16 a2bc
00000010: c126 033e be1d 65bd d7e9 27be 3a47 073e
00000020: 7dfc 0ebe 4098 663d f20d a23d fbd2 5abe
00000030: 69fc b6bd 76df 563e 6cf5 873a 7722 f0bc
00000040: bc36 91bd ea68 4dbd a589 833e 382e e0bc
00000050: 2bd9 4a3e ba34 113e cdf5 943e ed78 1a3d
00000060: 198e 883c cefa 36be ca48 40be 2282 c93e
00000070: 5830 94bd 6161 2bbe 1e57 04bd 4c14 6ebe
00000080: 1fb3 b2bc 7c53 47bd b45f 9b3d c5b8 0cbe
00000090: 917b 2abe 1719 73bd eedf 4d3a a0de 193e
000000a0: 2283 94bd 44ef 883d 3f2a ce3c c28d cdbd
000000b0: 967f 423e c525 c53d a0fd f13d b01c 0c3d
000000c0: c709 493d a666 4d3e e138 473e bdbc 433d
000000d0: 8adb 243e 88ac c5bd 582b b93d 609e 573d
000000e0: 08cd efbc 1af3 dc3c 23a0 c0bd 65c2 93bd
000000f0: a799 c2bd ad7a aabd 893a ab3c 54af 90be
00000100: efde 253d 04cd 0fbe 4a97 203d 9aa6 883d
00000110: 44a0 80bd e8eb 013e 11bc 703e 175b c63d
00000120: 55f2 39be 6cf7 0e3e 42ec 073e 4439 bfbd
00000130: d5de 8dbb aa82 a03d 1138 f1bc ef8f a0be
00000140: 7cc4 3a3e 0653 d8bc 6d61 543d adac 08be
00000150: c3ac 9e3c 07f2 a93d 62ea 1e3e 1688 5cbe
00000160: 91b5 fc3c 7c28 7a3e f136 e43b 9de0 00be
00000170: 0ee4 7b3c 3665 5e3e 260c 383e 710b 1ebe
00000180: e486 ff3d 7f0b 23be 3804 03be 4559 ab3a
00000190: 37b6 3b3d 3922 8fbd 9ee2 ee3b 7ec0 53bc
000001a0: 621b 6dbe 63bb 033e dc3f 18be e466 293c
000001b0: 8f0c b9bd 164f d0bd bb61 fcbd 6df0 2fbd
000001c0: fed1 24bd bca2 88be e444 7d3d d5dd 09be
000001d0: 1c1d cc3c d8b2 c13c b01b 663d afdb 8bbc
000001e0: 407e 843e 3bbb b1bc a631 1b3d 0c0c b7bd
000001f0: 4348 50be 7985 f73d 78fd 4e3e 3488 1c3d
00000200: 835a a03b cf6f 02bc 73dc 393e 15f7 553d
00000210: 27f6 7e3e 9ae4 11bd 18d3 01bd 15fc c3bd
00000220: da8e 9cbe 2af5 47be 24ba a2bd 3cad d43d
00000230: 2b6a 3ebd 3c5b 6dbd 6950 11be 243d f93c
00000240: 2b08 37be 74b1 39be b187 813e 1afc 873e
00000250: 3874 83bd 7760 a73e 9b2a 33be f0d1 3b3e
00000260: 4d0b 9a3d 488b 7dbe 2295 893e d363 d2bd
00000270: 4223 48bd b194 03be 8736 373e f83f d6bd
00000280: 9145 763d e906 85bc e53e d5bd e98b 99bd
00000290: 8d33 eebd 6771 c93d 5ba1 7fbe 6110 503d
000002a0: 7ab5 633e a67f b93d a1be 3e3d 2810 823e
000002b0: 2229 0ebd a27f 88bc c752 19be 07ee 97bd
000002c0: 5bde 4c3d 3f03 863c 2b0c c6bc 8419 513e
000002d0: 0de8 d53c 184e 373e a396 e6bd 51d8 d6bc
000002e0: 2332 5bbe dd35 0e3e 8133 8c3d 007e 773c
000002f0: 3d5e 9e3e 192b 3bbe 8d94 273e 99c2 c03c
00000300: 0c9f 453d 1c67 863d bf80 103d 2d9a 7c3d
00000310: d52f dabd 117a 753d d4f5 d73d 6df4 233d
00000320: 2a41 78bd 6475 9d3d e8ae b43d 7ef0 0dbe
00000330: 4bc0 4dbe 5c66 03bd 03f7 09bd 9db8 92bc
00000340: 8f12 833c e71c 64bd c32c 97bd ce32 92bd
00000350: 1312 9f3e ae3d ecbd ac9e f3bd c36e 043e
00000360: be5f c63d 736a c53d 9b38 06be c8ed 253d
00000370: 5d31 af3e 1e4f e1bd 0987 383c 49ba bf3c
00000380: eeaf ddbd 56af 1cbd ed96 08bd af1a d23d
00000390: 23cf c53d 1de4 cf3d d89f a6bd 9aa0 dabd
000003a0: ff8f 6b3c b29b b93d 61b1 18bd fab4 363e
000003b0: 6e65 563d 3c49 143e f6d0 23be 0c82 9ebd
000003c0: 2fbd dcbc ab92 e5bc 9a2a 57be 2307 f73d
000003d0: 2a97 013d 6399 b93d 4e1b 403e a0d4 3b3e
000003e0: ebc5 7c3d 0429 bc3d 724f bdbb a148 d93c
000003f0: 7940 813d 7bbf bfbd 05f2 1d3d 0287 823d

fc3.bias f4 [10]
-0.18594004 -0.48913983 0.14287545 0.27864 0.45984125 -0.12733401 0.18163355 -0.35979116
0.4532654 -0.23233296
00000000: 1167 3ebe 8970 fabe f14d 123e e7a9 8e3e
00000010: 5070 eb3e d963 02be 25fe 393e 8c36 b8be
00000020: 6712 e83e b1e8 6dbe
